outputs/ner/pytorch_model_head.bin (torch, 22593 bytes, 2 tensors)

classifier.weight f4 [7, 768]
0.030795753 0.036561616 -0.007326494 -0.045962375 -0.0340566 -0.0028579084 0.06536709 -0.03143895
0.02825509 0.093779854 0.058936223 0.02384504 0.023411315 -0.015119236 0.020654067 0.0621363
-0.053433854 0.025111351 -0.032560706 0.04854786 0.042360354 -0.014766396 -0.0015477181 -0.06317982
0.0063454504 -0.014252286 0.036448263 0.056661494 -0.008311768 0.016922286 0.02832368 0.004375295
0.085244924 0.04315111 0.05321739 -0.0077476627 -0.037911337 -0.043619268 0.089184694 -0.04298861
0.035338942 0.055192705 0.09746765 -0.015927434 -0.04483975 -0.006407092 -0.046052963 0.04613051
0.025148368 0.048065655 -0.06050619 -0.037682556 -0.012461358 -0.03470146 0.0515815 -0.003911612
-0.0450653 -0.046337537 -0.049160186 -0.03451446 -0.017404864 -0.0083356295 -0.0033963532 -0.050605915
0.047949955 0.0069461474 -0.043543227 -0.009384049 0.006161538 -0.021025222 0.017140396 -0.10131614
-0.021801038 -0.09665464 0.025359595 0.030340357 0.020633845 -0.035793524 0.060383905 -0.011278412
-0.021028876 0.052316148 0.03335143 0.03917765 -0.047244694 -0.022822017 0.010023945 -0.043156043
-0.014264952 0.02542071 -0.02367467 0.0028426854 -0.008148841 0.037115194 0.038113408 -0.07101492
-0.049665894 0.0005040074 0.049704257 -0.043938693 0.08650114 -0.05628346 0.040368263 -0.003306528
-0.012467762 -0.03582241 0.038524073 -0.07018641 0.0024896492 -0.01858351 -0.0053616725 0.026089853
-0.05384064 0.04811438 -0.06785357 -0.05622509 -0.024074811 -0.11415792 0.01586214 -0.031838298
-0.009900339 -0.055189952 0.013904697 0.007518993 -0.032697868 -0.0048987754 0.04289696 0.0154867945
-0.03529981 0.023339001 -0.028476262 -0.028617127 0.040509492 0.05275333 0.04514295 -0.052663222
0.020005826 0.032728795 -0.033643384 -0.038051415 0.02265947 -0.031061271 -0.027093634 0.010091926
0.02857458 -0.03570268 -0.063708775 0.0027968246 0.04779628 0.0015772951 0.04365725 0.04065438
-0.023785094 -0.04422321 -0.004108215 -0.03731062 0.050776977 0.027755694 -0.023242323 -0.0037566635
0.049238786 -0.0056193285 0.04444918 0.003607994 0.041642282 -0.0042151427 -0.05180492 -0.013465493
-0.046369933 0.00769811 -0.032364387 0.026371194 0.053595293 0.05023533 0.08095493 -0.03062767
0.09783152 0.036559038 -0.0038340876 0.07838354 -0.028717782 -0.003950699 -0.0076738936 -0.016349528
0.04171001 0.020679718 0.034653936 -0.026467325 -0.05013624 -0.053798992 0.012345965 -0.020457642
-0.035508808 -0.04392435 0.02674155 -0.016008683 0.012787148 -0.08646351 0.03309954 -0.0045464593
0.038836863 0.0015851862 -0.019734044 0.006424719 0.020294221 0.0064090285 0.07864857 -0.01457143
0.028463444 -0.030724613 0.00031092888 -0.056550853 0.0050478852 0.02846937 -0.054857098 -0.059689824
-0.039369315 -0.02134407 -0.064146675 -0.092067674 -0.049800884 -0.020611292 0.03278419 0.025007572
-0.046308506 0.04975357 0.058061525 0.0040538325 0.02989369 -0.01653113 0.023490828 0.02007796
0.001958044 0.02491321 0.057163887 -0.011519452 0.023667203 -0.034008645 0.061362028 0.032162324
-0.05044328 -0.031813573 -0.03173811 -0.008601434 0.015796835 0.049658097 -0.02759723 -0.020556314
0.032270197 0.039952837 0.062676705 -0.03020621 -0.06854994 -0.048180778 0.0663213 0.0061792657
00000000: 6047 fc3c a2c1 153d 1613 f0bb 0b43 3cbd
00000010: ef7e 0bbd bf4b 3bbb 2edf 853d 21c6 00bd
00000020: 3877 e73c a70f c03d 1c67 713d ac56 c33c
00000030: 16c9 bf3c acb6 77bc b832 a93c a282 7e3d
00000040: 75dd 5abd 52b6 cd3c 605e 05bd 1fda 463d
00000050: 0d82 2d3d c1ee 71bc cddc caba 6c64 81bd
00000060: 7fed cf3b 6c82 69bc c64a 153d e215 683d
00000070: 152e 08bc 9ba0 8a3c 1007 e83c a25e 8f3b
00000080: e494 ae3d 38bf 303d 7afa 593d 1be0 fdbb
00000090: eb48 1bbd 1eaa 32bd 77a6 b63d d314 30bd
000000a0: 91bf 103d bf11 623d 1f9d c73d 407a 82bc
000000b0: e3a9 37bd 95f2 d1bb 08a2 3cbd 58f3 3c3d
000000c0: f303 ce3c 7ee0 443d 57d5 77bd 0659 1abd
000000d0: b92a 4cbc 1e23 0ebd 1f47 533d fb2c 80bb
000000e0: 6496 38bd 6ecc 3dbd 315c 49bd 095f 0dbd
000000f0: a594 8ebc 2a92 08bc 5a95 5ebb 2648 4fbd
00000100: 2c67 443d 829c e33b 625a 32bd 8ebf 19bc
00000110: bae6 c93b 163d acbc 046a 8c3c d67e cfbd
00000120: 1798 b2bc def2 c5bd edbe cf3c 578c f83c
00000130: 4f08 a93c 3b9c 12bd 1d55 773d 17c9 38bc
00000140: c044 acbc 7549 563d 829b 083d be78 203d
00000150: a783 41bd 3df5 babc 793b 243c 64c4 30bd
00000160: 8cb7 69bc 183f d03c 62f1 c1bc 594c 3a3b
00000170: b782 05bc 1a06 183d ce1c 1c3d 4570 91bd
00000180: 776e 4bbd 5d1f 043a b196 4b3d 0ff9 33bd
00000190: 8227 b13d 7c89 66bd 3159 253d 56b2 58bb
000001a0: 9645 4cbc 85ba 12bd 6bcb 1d3d e4bd 8fbd
000001b0: 6229 233b 723c 98bc f8b0 afbb 63ba d53c
000001c0: 0188 5cbd 9613 453d d0f6 8abd 484c 66bd
000001d0: 8a38 c5bc a1cb e9bd 52f1 813c e068 02bd
000001e0: 0835 22bc dc0e 62bd 87d0 633c e361 f63b
000001f0: 33ee 05bd e885 a0bb b9b4 2f3d 53bc 7d3c
00000200: 8996 10bd 6f31 bf3c 0d47 e9bc 776e eabc
00000210: 48ed 253d e013 583d d0e7 383d 64b5 57bd
00000220: 42e3 a33c a10e 063d a5cd 09bd cddb 1bbd
00000230: 5aa0 b93c 3574 febc 78f3 ddbc 9b58 253c
00000240: 3d15 ea3c f93c 12bd bf79 82bd ee4a 373b
00000250: 08c6 433d 3ebd ce3a f2d1 323d 3585 263d
00000260: f5d8 c2bc 6623 35bd 359e 86bb 05d3 18bd
00000270: 85fb 4f3d e95f e33c af66 bebc 5b32 76bb
00000280: 9cae 493d 5822 b8bb 5810 363d 1874 6c3b
00000290: 1991 2a3d 2e1f 8abb 6531 54bd 5f9e 5cbc
000002a0: 66ee 3dbd 6d40 fc3b 8590 04bd 6708 d83c
000002b0: bd86 5b3d 90c3 4d3d b3cb a53d e1e6 fabc
000002c0: e45b c83d eebe 153d 5145 7bbb 8d87 a03d
000002d0: 8e41 ebbc de74 81bb 4975 fbbb 72ef 85bc
000002e0: 1ed8 2a3d 8368 a93c 49f1 0d3d 01d2 d8bc
000002f0: a85b 4dbd 555c 5cbd bb46 4a3c c996 a7bc
00000300: af71 11bd 05ea 33bd 1811 db3c a424 83bc
00000310: 3081 513c c813 b1bd 6293 073d 77fa 94bb
00000320: 6713 1f3d 06c6 cf3a 4aa9 a1bc 7386 d23b
00000330: 1140 a63c d402 d23b 8012 a13d 02bd 6ebc
00000340: 2b2c e93c 2fb2 fbbc 2b04 a339 dea1 67bd
00000350: bb68 a53b 9938 e93c d6b1 60bd 517d 74bd
00000360: b841 21bd c2d9 aebc 555f 83bd fa8d bcbd
00000370: 03fc 4bbd 03d9 a8bc b748 063d aedc cc3c
00000380: fdad 3dbd 66ca 4b3d ecd1 6d3d 03d6 843b
00000390: 9de3 f43c 4b6c 87bc d66f c03c 897a a43c
000003a0: 8752 003b ca16 cc3c ae24 6a3d 15bc 3cbc
000003b0: b9e1 c13c a64c 0bbd c056 7b3d a4bc 033d
000003c0: 9d9d 4ebd f34e 02bd d2ff 01bd 07ed 0cbc
000003d0: 5d68 813c 4a66 4b3d 9613 e2bc b765 a8bc
000003e0: c12d 043d 96a5 233d a55c 803d 0473 f7bc
000003f0: e963 8cbd 3559 45bd 76d3 873d 707b ca3b

classifier.bias f4 [7]
0.0018970091 0.010304675 -0.014738404 -0.0021086247 0.011433575 -0.006981977 -0.017356936
00000000: 10a5 f83a f1d4 283c 5979 71bc da30 0abb
00000010: e453 3b3c 11c9 e4bb 2230 8ebc
